tpu_rwkv/testdata/small-model-test.pt (torch, 77530 bytes, 192 tensors)

copy_mask f4 [3, 3]
0	0x3f800000	1.0
1	0x00000000	0.0
2	0x00000000	0.0
3	0x3f800000	1.0
4	0x3f800000	1.0
5	0x00000000	0.0
6	0x3f800000	1.0
7	0x3f800000	1.0
8	0x3f800000	1.0

emb.weight f4 [6, 5]
0	0xbfb4c069	-1.4121219
1	0x3f540dc4	0.82833505
2	0xbf822a71	-1.0169202
3	0x3f440e55	0.7658437
4	0x402e9b32	2.7282224
5	0xbf128f2b	-0.57249707
6	0x3f784689	0.9698263
7	0x3e82853b	0.25492272
8	0x3f8681a2	1.0508311
9	0xbf9a3a02	-1.2048953
10	0xbfa6df6c	-1.3036933
11	0x40446a38	3.068983
12	0xbf32acee	-0.6979512
13	0xbf334760	-0.70030785
14	0xbf62f7c7	-0.8865933
15	0x3f8da114	1.1064782
16	0xbf45da14	-0.77285886
17	0xbf3cd8cb	-0.737683
18	0x3f998fcd	1.199701
19	0x3f653027	0.895266
20	0x3f1cc1fd	0.612335
21	0x3f996296	1.1983211
22	0xbf8313d5	-1.0240427
23	0x3e884626	0.2661602
24	0x3fd5ac2a	1.6693165
25	0xbf9b2f8c	-1.2123885
26	0xbf276b38	-0.6539798
27	0xbd961847	-0.07328849
28	0x3ebb3046	0.36560267
29	0x3eb6c071	0.35693696

blocks.0.ln1.weight f4 [5]
0	0x3f800000	1.0
1	0x3f800000	1.0
2	0x3f800000	1.0
3	0x3f800000	1.0
4	0x3f800000	1.0

blocks.0.ln1.bias f4 [5]
0	0x00000000	0.0
1	0x00000000	0.0
2	0x00000000	0.0
3	0x00000000	0.0
4	0x00000000	0.0

blocks.0.ln2.weight f4 [5]
0	0x3f800000	1.0
1	0x3f800000	1.0
2	0x3f800000	1.0
3	0x3f800000	1.0
4	0x3f800000	1.0

blocks.0.ln2.bias f4 [5]
0	0x00000000	0.0
1	0x00000000	0.0
2	0x00000000	0.0
3	0x00000000	0.0
4	0x00000000	0.0

blocks.0.ln0.weight f4 [5]
0	0x3f800000	1.0
1	0x3f800000	1.0
2	0x3f800000	1.0
3	0x3f800000	1.0
4	0x3f800000	1.0

blocks.0.ln0.bias f4 [5]
0	0x00000000	0.0
1	0x00000000	0.0
2	0x00000000	0.0
3	0x00000000	0.0
4	0x00000000	0.0

blocks.0.ffnPre.time_mix_k f4 [1, 1, 5]
0	0x00000000	0.0
1	0x3e4ccccd	0.2
2	0x3ecccccd	0.4
3	0x3f19999a	0.6
4	0x3f4ccccd	0.8

blocks.0.ffnPre.time_mix_r f4 [1, 1, 5]
0	0x00000000	0.0
1	0x3e4ccccd	0.2
2	0x3ecccccd	0.4
3	0x3f19999a	0.6
4	0x3f4ccccd	0.8

blocks.0.ffnPre.key.weight f4 [20, 5]
0	0x3e13c534	0.14430696
1	0xbe09514c	-0.13409919
2	0x3e95f486	0.2928812
3	0x3be88e00	0.007097006
4	0xbd9311b4	-0.07181111
5	0x3e97e184	0.29664242
6	0x3e88cb24	0.26717484
7	0x3edc3994	0.4301268
8	0x3eb491d8	0.3526752
9	0xbe83911c	-0.25696647
10	0xbec4bbf2	-0.3842464
11	0x3d496a60	0.049173713
12	0x3ed56152	0.41675812
13	0xbe0a53e6	-0.13508567
14	0x3ddb30a8	0.1070264
15	0xbdc0f534	-0.09421769
16	0xbe84e718	-0.2595756
17	0x3ed9d5f2	0.4254604
18	0xbed0021a	-0.40626603
19	0x3e414f7c	0.18877977
20	0x3ed98f68	0.42492223
21	0xbe8d2956	-0.275706
22	0x3ecf4b46	0.40487117
23	0x3e83b094	0.25720656
24	0xbde03c78	-0.109490335
25	0xbec2e5ce	-0.38065952
26	0x3dfe5998	0.124194324
27	0xbebb5310	-0.3658681
28	0x3ed2cc40	0.41171455
29	0x3ea499c0	0.32148552
30	0xbd8a1818	-0.06742877
31	0xbea321ae	-0.31861633
32	0x3eaa02ba	0.33205205
33	0x3cc0bda0	0.02352792
34	0xbe813737	-0.25237438
35	0xbed3b98c	-0.413525
36	0xbe64ddbf	-0.22350214
37	0xbebcf482	-0.36905295
38	0xbe8352e4	-0.25649178
39	0x3ed077e6	0.40716475
40	0xbe8df68e	-0.2772717
41	0x3e800362	0.2500258
42	0x3e549f40	0.20763874
43	0xbdf48458	-0.11939305
44	0xbcdafe40	-0.026732564
45	0xbe4214ca	-0.18953243
46	0xbdc6e424	-0.09711483
47	0xbe96c604	-0.2944795
48	0x3ecc250c	0.39872015
49	0xbe5d3974	-0.21603948
50	0x3ec6d21a	0.3883217
51	0xbea62888	-0.32452798
52	0xbe17f85e	-0.14840838
53	0x3eb69c06	0.3566591
54	0x3e0e1df4	0.13878614
55	0x3ecbf88a	0.39838058
56	0x3e87e342	0.2654057
57	0xbe18d518	-0.14925039
58	0x3ebbf4b6	0.36710137
59	0x3ede040a	0.43362457
60	0xbde05654	-0.10953966
61	0xbeae1abb	-0.3400477
62	0x3edfaa78	0.43684745
63	0xbecb7e5c	-0.39744842
64	0x3da8b010	0.08236706
65	0xbd95cee4	-0.07314852
66	0xbde63710	-0.11240971
67	0xbecab4c0	-0.39591026
68	0x3e1da990	0.15396714
69	0xbeda8f67	-0.42687532
70	0x3d43e1d8	0.047822803
71	0x3ed1d018	0.40979075
72	0xbeaed08d	-0.34143487
73	0xbd6b3fa0	-0.057433724
74	0xbe47011e	-0.1943402
75	0xbe20a154	-0.15686542
76	0xbd599f50	-0.053130448
77	0xbcb5c6d0	-0.022189528
78	0x3e9987aa	0.29986316
79	0x3eb19e2e	0.34690994
80	0xbe268f78	-0.16265666
81	0xbecd4629	-0.4009259
82	0x3bc2b080	0.0059414506
83	0x3ee34924	0.4439174
84	0x3e395b64	0.18101269
85	0x3edd09a0	0.43171406
86	0x3d688720	0.05676949
87	0xbe1b4bc8	-0.15165627
88	0x3ed42ce6	0.41440505
89	0xbe2d82b8	-0.16944396
90	0x3eb8ac56	0.36068982
91	0x3e28b1d0	0.1647408
92	0xbc8be2e0	-0.017075956
93	0x3e9bb762	0.30413347
94	0x3e499b8c	0.19688243
95	0xbbf0ab40	-0.0073446333
96	0xbe5b0ad4	-0.2139085
97	0x3ec96514	0.3933493
98	0x3ec561d4	0.385512
99	0xbdb2c5c0	-0.08729124

blocks.0.ffnPre.receptance.weight f4 [5, 5]
0	0xbdcc152c	-0.09964976
1	0xbebd44e2	-0.36966616
2	0x3e96ee6c	0.29478776
3	0x3e93d192	0.28870827
4	0x3da4d6c8	0.08048779
5	0xbd8392a0	-0.06424451
6	0x3e2b90d4	0.16754466
7	0x3df99720	0.12187028
8	0x3daf73e0	0.08567023
9	0x3df685a8	0.12037212
10	0xbe0f4aae	-0.13993332
11	0xbeb96a22	-0.36213785
12	0x3e51995c	0.20468658
13	0x3e919048	0.2843039
14	0x3e1cfa38	0.15329826
15	0x3e880078	0.26562858
16	0xbe4cdbb4	-0.20005685
17	0x3eb483ec	0.35256898
18	0x3ddb01c0	0.10693693
19	0xbe7246d6	-0.23659834
20	0xbe8e91c2	-0.2784558
21	0x3ebe5c14	0.37179625
22	0x3ea4775a	0.32122308
23	0xbc20d1c0	-0.009815633
24	0x3e8400ca	0.25781852

blocks.0.ffnPre.value.weight f4 [5, 20]
0	0x3de59774	0.11210528
1	0x3d3d5b20	0.04622948
2	0xbbda11a0	-0.006654933
3	0xbe01cb86	-0.12675294
4	0xbe461e59	-0.19347514
5	0x3e2e8832	0.17044142
6	0xbd98f8ea	-0.074693516
7	0x3e614bc0	0.22001553
8	0x3e3ae9aa	0.18253198
9	0xbdfe9453	-0.12430634
10	0x3d7bf050	0.061508477
11	0x3d8ba884	0.06819251
12	0x3cc76778	0.02434133
13	0x3ded09f0	0.11574161
14	0xbd97fb6a	-0.07421
15	0x3e492af4	0.19645292
16	0xbe105e2c	-0.14098424
17	0xbd7908d8	-0.06079945
18	0x3dced10c	0.10098466
19	0x3e51f570	0.20503783
20	0xbe0bd414	-0.1365512
21	0xbbbacec0	-0.005700916
22	0x3d9e2afc	0.07723042
23	0xbdae3074	-0.085053355
24	0xbe586c32	-0.21135023
25	0x3d7e70a8	0.062119156
26	0xbdd32715	-0.10310189
27	0x3e0883ae	0.13331482
28	0xbda2655a	-0.079294875
29	0xbdd0672b	-0.10175928
30	0x3d7938a8	0.060845047
31	0x3dc6a108	0.09698683
32	0xbdcd23bc	-0.100165814
33	0xbd97c210	-0.07410061
34	0xbe4445c6	-0.19167241
35	0x3bc20b20	0.0059217364
36	0xbe0644cd	-0.13112183
37	0xbdd95b24	-0.10613087
38	0xbd28439c	-0.041080102
39	0xbe347893	-0.1762412
40	0xbc4fa910	-0.012674585
41	0xbd12eef8	-0.03587243
42	0x3da77488	0.081765234
43	0xbd0202b4	-0.03174086
44	0x3e4e4b34	0.20145875
45	0x3e0aaff0	0.13543677
46	0x3dc11f54	0.094298035
47	0xbdd5d258	-0.104405105
48	0x3dc3234c	0.09528217
49	0xbe385090	-0.17999482
50	0x3d3aa890	0.04557091
51	0xbdd78a0a	-0.10524376
52	0x3e18f9f2	0.14939097
53	0xbd58c9e4	-0.052926913
54	0x3dec6940	0.11543512
55	0xbd5e17b8	-0.05422184
56	0xbda9dfdc	-0.08294651
57	0x3d84ebd0	0.0649029
58	0x3ddd08f8	0.10792726
59	0xbdcc8f49	-0.09988267
60	0x3dae9500	0.08524513
61	0xbe2d4b10	-0.16923165
62	0x3e09a73c	0.13442701
63	0x3d4dafd0	0.050216496
64	0xbc7de390	-0.01549615
65	0x3e537bba	0.20652667
66	0xbd9ac9ce	-0.075580224
67	0x3dd377ec	0.10325608
68	0xbd8a40ca	-0.06750639
69	0xbd163904	-0.036675468
70	0xbd7a15d8	-0.061055988
71	0x3e4c06dc	0.19924492
72	0xb9788400	-0.00023700297
73	0xbe4c3694	-0.19942695
74	0xbda67a1a	-0.08128758
75	0x3ca517a8	0.020152882
76	0xbe3a9f62	-0.18224862
77	0x3e1671f6	0.1469191
78	0x3d842ba8	0.06453639
79	0x3e49e2bc	0.19715399
80	0xbe6235fb	-0.22090904
81	0x3c494c70	0.0122862905
82	0xbda5d294	-0.08096805
83	0xbd424704	-0.047431007
84	0xbda85baa	-0.082206085
85	0x3d0ed180	0.034867764
86	0xbe3300bc	-0.17480749
87	0xbd83fa1c	-0.06444189
88	0xbd47b65c	-0.048757896
89	0x3e456960	0.19278479
90	0x38917800	6.9364905e-05
91	0xbe227c1b	-0.15867655
92	0xbc9f9558	-0.019480392
93	0xbe3a89a6	-0.18216571
94	0x3d926350	0.071478486
95	0x3c396210	0.011314884
96	0xbdfa403e	-0.122192845
97	0x3e281c90	0.16417146
98	0x3d9dfc48	0.077141345
99	0xbdfa09cb	-0.12208899

blocks.0.ffn.time_mix_k f4 [1, 1, 5]
0	0x00000000	0.0
1	0x3e4ccccd	0.2
2	0x3ecccccd	0.4
3	0x3f19999a	0.6
4	0x3f4ccccd	0.8

blocks.0.ffn.time_mix_r f4 [1, 1, 5]
0	0x00000000	0.0
1	0x3e4ccccd	0.2
2	0x3ecccccd	0.4
3	0x3f19999a	0.6
4	0x3f4ccccd	0.8

blocks.0.ffn.key.weight f4 [20, 5]
0	0x3e9212e4	0.28530037
1	0xbdc8ffac	-0.098143905
2	0x3ea20614	0.31645262
3	0xbe717668	-0.23580325
4	0xbe9b7182	-0.30360037
5	0xbe97b612	-0.29631096
6	0xbec67351	-0.38759854
7	0x3e31f618	0.17379034
8	0xbe5be03b	-0.21472256
9	0xbe158662	-0.14602044
10	0x3ea7a2d6	0.3274142
11	0xbe3156e6	-0.17318305
12	0x3e1c77bc	0.1528005
13	0xbe13c50e	-0.14430639
14	0x3d6895c0	0.056783438
15	0x3e4fcb28	0.20292342
16	0x3d031448	0.032001764
17	0xbedba220	-0.4289713
18	0x3d8500d0	0.064942956
19	0x3e836c42	0.25668532
20	0x3ed34996	0.4126708
21	0x3e7914d4	0.24324352
22	0x3e119fd4	0.14221126
23	0x3e573f60	0.2102027
24	0xbe323080	-0.17401314
25	0xbe02fc70	-0.1279161
26	0x3eaffbda	0.34371835
27	0x3ded9110	0.11599934
28	0xbea305d5	-0.31840387
29	0x3ecbcb94	0.39803755
30	0x3d3c9580	0.04604101
31	0x3eac4d3e	0.3365268
32	0x3e95eca6	0.2928211
33	0x3e84da58	0.25947833
34	0xbee37320	-0.4442377
35	0x3ed88046	0.42285365
36	0x3dae59c8	0.08513218
37	0x3e899e70	0.2687869
38	0xbeb58c0f	-0.3545842
39	0x3e001fac	0.12512082
40	0x3ed577ce	0.41692966
41	0xbd622168	-0.05520764
42	0x3e48edac	0.19621915
43	0x3e46f8ac	0.19430798
44	0x3ed08102	0.40723425
45	0x3ea80fc8	0.3282454
46	0xbeb025c7	-0.34403822
47	0xbb942340	-0.0045208037
48	0xbe490d96	-0.19634089
49	0xbeafa43b	-0.34304985
50	0x3eb1ec50	0.34750605
51	0x3db03b58	0.08605069
52	0x3ecd2064	0.40063775
53	0xbeb47e1a	-0.35252458
54	0x3e4f71a0	0.20258188
55	0xbe9fdfda	-0.31225473
56	0xbe52a78b	-0.20571725
57	0x3e558b14	0.20853835
58	0xbed5bdf7	-0.41746494
59	0x3e442198	0.1915344
60	0xbe98505f	-0.29748818
61	0x3dcb2070	0.09918296
62	0xbe8ab80e	-0.27093548
63	0xbdeaf5d8	-0.11472672
64	0xbe9873eb	-0.29775938
65	0x3ca7af80	0.020469427
66	0x3ce8c2a0	0.028413117
67	0xbd20d6b8	-0.03926727
68	0x3e2dd548	0.16975892
69	0x3ddb6370	0.107123256
70	0xbcf054e0	-0.029337347
71	0xbeb2a204	-0.34889233
72	0xbcf64090	-0.030060083
73	0x3d7c3550	0.06157428
74	0xbec451d6	-0.38343686
75	0x3c98eb80	0.018666983
76	0xbe669659	-0.2251829
77	0x3e7851b4	0.24249917
78	0xbe25ebce	-0.16203234
79	0xbe70eb57	-0.23527275
80	0xbd374940	-0.04474759
81	0xbb3ea100	-0.0029087663
82	0xbe61306e	-0.2199113
83	0x3ea43db4	0.32078326
84	0x3edac5c6	0.42729014
85	0x3e087e3c	0.13329405
86	0x3ce3d810	0.027812988
87	0x3e4ae6d4	0.19814616
88	0x3e82c15a	0.2553814
89	0x3e5e8e6c	0.21734017
90	0xbebc723c	-0.36805904
91	0xbe3adf9c	-0.18249363
92	0xbd203a28	-0.039117962
93	0xbe00e5be	-0.1258764
94	0x3e91f6f0	0.2850871
95	0x3dcb11a8	0.09915477
96	0xbeaecc63	-0.3414031
97	0x3df51a38	0.119678915
98	0xbeb42e9a	-0.35191804
99	0x3dd6e608	0.10493094

blocks.0.ffn.receptance.weight f4 [5, 5]
0	0x3e1a2558	0.15053308
1	0x3e8a4a6a	0.27009898
2	0x3d5ad3c0	0.053424597
3	0xbe81e50c	-0.2537006
4	0xbede80b7	-0.43457577
5	0xbe0bac44	-0.13639933
6	0xbcbf9b60	-0.023389518
7	0xbdbde4a4	-0.09272125
8	0xbea6dfd6	-0.32592648
9	0x3ae67100	0.0017581284
10	0x3dd1b3a8	0.10239345
11	0x3d46cdd8	0.04853615
12	0x3e8f0864	0.2793609
13	0xbc766060	-0.015037626
14	0xbd880754	-0.06642023
15	0xbcb030c0	-0.02150762
16	0xbede915e	-0.4347028
17	0x3c250760	0.010072559
18	0xbe86085c	-0.26178253
19	0x3eaaa784	0.3333093
20	0x3e255798	0.16146696
21	0x3d05e6d0	0.032690823
22	0x3e0f8830	0.14016795
23	0xbe597a55	-0.21238072
24	0x3ebc1364	0.36733544

blocks.0.ffn.value.weight f4 [5, 20]
0	0x3e4169cc	0.18888015
1	0x3e6103b6	0.21974072
2	0xbdce7108	-0.10080153
3	0x3e1e409c	0.15454334
4	0xbe0471e6	-0.12934074
5	0x3b46c5c0	0.003033027
6	0x3d339d20	0.043851018
7	0x3e3160b8	0.17322052
8	0xbdc1c34c	-0.09461078
9	0x3e24e314	0.16102248
10	0xbe52846b	-0.20558326
11	0x3de24434	0.11048165
12	0xbe5470e7	-0.20746194
13	0x3e522428	0.20521605
14	0x3e1375c2	0.1440039
15	0xbd064854	-0.03278382
16	0x3df1c240	0.11804628
17	0x3df2708c	0.11837873
18	0x3c9f6830	0.01945886
19	0xbdc0ed64	-0.09420279
20	0xbe209ac4	-0.15684038
21	0xbe4f66b1	-0.20254017
22	0x3e5caa00	0.21549225
23	0xbd399668	-0.045309454
24	0x3b210480	0.0024569333
25	0x3e45e53a	0.19325724
26	0xbe2ea506	-0.17055139
27	0x3e4bb37a	0.19892684
28	0xbe2d1658	-0.16903055
29	0xbe4a96e6	-0.19784126
30	0x3d670ab8	0.056406707
31	0xbdc58be8	-0.096458256
32	0x3e5ebf70	0.21752715
33	0x3ced8340	0.028993249
34	0xbd99951e	-0.07499145
35	0x3d74aa88	0.059732944
36	0x3e2fcbd8	0.17167604
37	0x3d193520	0.03740418
38	0xbe372a7c	-0.178873
39	0xbe184052	-0.14868286
40	0x3d452c78	0.04813811
41	0x3d96f4d0	0.07370913
42	0xbd86e94c	-0.065874666
43	0xbdd44a2a	-0.10365708
44	0xbd70a788	-0.05875352
45	0x3e03d136	0.12872776
46	0x3e285250	0.1643765
47	0x3ccdc400	0.025117874
48	0x3e15ed84	0.14641386
49	0xbe42a254	-0.19007236
50	0xbd91bc14	-0.07115951
51	0xbe4ec8dc	-0.2019381
52	0xbe064a14	-0.13114196
53	0x3d1fa310	0.038973868
54	0x3d697010	0.056991637
55	0x3e3bd0cc	0.18341368
56	0xbe26dc33	-0.16294937
57	0xbe4e73d6	-0.20161375
58	0x3cd463b8	0.025926456
59	0xbca03238	-0.019555196
60	0x3dd84ba8	0.10561305
61	0x3de4bc98	0.11168784
62	0xbdc5bc4e	-0.09655057
63	0x3e470606	0.19435892
64	0x3da0ba40	0.07848024
65	0x3e4fd646	0.20296583
66	0xbd88362e	-0.06650959
67	0xbe1c536d	-0.152662
68	0x3de0a7c8	0.10969502
69	0x3def5998	0.116870105
70	0x3da31bdc	0.07964298
71	0xbe1741db	-0.14771216
72	0xbd8b4a5e	-0.06801294
73	0xbe4143e0	-0.18873549
74	0x3e2ee23e	0.17078492
75	0x3e106246	0.14099988
76	0x3e2cc4c6	0.16871938
77	0x3e623684	0.22091109
78	0x3e5d06a6	0.21584567
79	0x3e2f924a	0.17145649
80	0x3e01d3a0	0.12678385
81	0x3e5c2c1c	0.21501201
82	0xbe456e70	-0.1928041
83	0x3e6480ac	0.2231471
84	0x3e08b698	0.13350904
85	0x3b7f44c0	0.003895089
86	0x3e54137c	0.20710558
87	0x3e576218	0.21033514
88	0xbe1d5759	-0.15365352
89	0xbe07e066	-0.13269195
90	0x3e3c8c2c	0.18412846
91	0xbdb9eece	-0.090787515
92	0x3d54c800	0.051948547
93	0xbd9ac686	-0.075573966
94	0xbe3a3b44	-0.1818667
95	0xbd246fc4	-0.04014565
96	0x3e46ddc2	0.19420531
97	0x3dcc22f0	0.09967601
98	0xbe57a1a6	-0.21057758
99	0x3e5c6f90	0.21526933

blocks.1.ln1.weight f4 [5]
0	0x3f800000	1.0
1	0x3f800000	1.0
2	0x3f800000	1.0
3	0x3f800000	1.0
4	0x3f800000	1.0

blocks.1.ln1.bias f4 [5]
0	0x00000000	0.0
1	0x00000000	0.0
2	0x00000000	0.0
3	0x00000000	0.0
4	0x00000000	0.0

blocks.1.ln2.weight f4 [5]
0	0x3f800000	1.0
1	0x3f800000	1.0
2	0x3f800000	1.0
3	0x3f800000	1.0
4	0x3f800000	1.0

blocks.1.ln2.bias f4 [5]
0	0x00000000	0.0
1	0x00000000	0.0
2	0x00000000	0.0
3	0x00000000	0.0
4	0x00000000	0.0

blocks.1.att.time_decay f4 [5]
0	0xc0a00000	-5.0
1	0xc02131f6	-2.5186744
2	0xbf0b6ac9	-0.54459816
3	0x3fa32626	1.2746017
4	0x40400000	3.0

blocks.1.att.time_first f4 [5]
0	0xbf9a1bc8	-1.2039728
1	0xbf343790	-0.7039728
2	0xbfda1bc8	-1.7039728
3	0xbf9a1bc8	-1.2039728
4	0xbf343790	-0.7039728

blocks.1.att.time_mix_k f4 [1, 1, 5]
0	0x00000000	0.0
1	0x3e708fdd	0.2349238
2	0x3ee073c7	0.4383833
3	0x3f21a670	0.6314459
4	0x3f516bde	0.8180522

blocks.1.att.time_mix_v f4 [1, 1, 5]
0	0x3d088889	0.033333335
1	0x3e895900	0.26825714
2	0x3ef184d8	0.47171664
3	0x3f2a2ef9	0.66477925
4	0x3f59f467	0.85138553

blocks.1.att.time_mix_r f4 [1, 1, 5]
0	0x00000000	0.0
1	0x3ef82935	0.48468938
2	0x3f297fba	0.6621052
3	0x3f4b6d3f	0.7946357
4	0x3f678ad8	0.90446234

blocks.1.att.key.weight f4 [5, 5]
0	0xbea82dc7	-0.32847425
1	0x3e590158	0.21191919
2	0x3eb08d94	0.34483016
3	0xbe35d016	-0.1775516
4	0x3deae8a8	0.11470157
5	0xbe71469d	-0.23562093
6	0x3edb754a	0.42862922
7	0x3eb4b444	0.35293782
8	0x3e8084d0	0.25101328
9	0xbc767f20	-0.015044957
10	0x3d143c50	0.03619033
11	0x3dabdce0	0.08391738
12	0x3e456b44	0.192792
13	0xbed7f532	-0.42179257
14	0x3e9448c0	0.28961754
15	0xbe8027a5	-0.25030246
16	0xbe4c4b7a	-0.19950667
17	0x3e2d8860	0.16946554
18	0xbe523f31	-0.20531918
19	0x3eaa7a14	0.33296263
20	0x3eb5c6ec	0.35503328
21	0xbe086c16	-0.13322482
22	0xbe983afd	-0.29732504
23	0xbe7be3f7	-0.2459868
24	0xbecd06aa	-0.40044147

blocks.1.att.value.weight f4 [5, 5]
0	0xbed50cdd	-0.41611376
1	0x3e9128e4	0.2835151
2	0xbe2dcf72	-0.16973665
3	0x3e3fdc08	0.18736279
4	0x3cb9f0a0	0.022697747
5	0x3e83ec2e	0.25766128
6	0xbea68bd2	-0.3252855
7	0xbe6ff62e	-0.23433754
8	0x3ec71986	0.3888666
9	0xbe6745b6	-0.22585186
10	0xbee4bdd7	-0.44676086
11	0x3e848ef6	0.2589032
12	0xbe4a6b04	-0.19767386
13	0x3eca7760	0.395442
14	0x3ece2eda	0.4027012
15	0xbe3773fc	-0.17915338
16	0x3e117350	0.14204144
17	0x3da1e3e0	0.07904792
18	0xbee42a56	-0.4456355
19	0xbed6188e	-0.4181561
20	0xbd503b68	-0.050837904
21	0x3edd99b2	0.43281323
22	0xbe60f8e8	-0.2196995
23	0x3d9ad498	0.0756008
24	0xbe83833a	-0.25686055

blocks.1.att.receptance.weight f4 [5, 5]
0	0x3ddde030	0.10833776
1	0x3e1dd214	0.1541217
2	0xbc808830	-0.01568994
3	0x3e85073e	0.25982088
4	0xbecc1e4b	-0.39866862
5	0xbe104474	-0.14088613
6	0x3e868264	0.26271355
7	0xbec909ec	-0.39265382
8	0xbed1e9be	-0.40998644
9	0x3e5e8878	0.21731746
10	0xbebb386f	-0.36566493
11	0x3e4975a4	0.19673783
12	0xbed2cf9b	-0.41174015
13	0x3e573bf4	0.21018964
14	0x3e31cb8c	0.17362803
15	0xbdf58750	-0.119886994
16	0x3ec31558	0.3810222
17	0x3e0680bc	0.13135046
18	0xbd497da0	-0.04919207
19	0xbe53c8a7	-0.20682012
20	0xbe3c6676	-0.18398461
21	0x3e30c4fc	0.17262644
22	0xbeaa694a	-0.33283454
23	0xbde0ba40	-0.10973024
24	0xbeae41eb	-0.34034666

blocks.1.att.output.weight f4 [5, 5]
0	0x3e763de8	0.24047053
1	0xbe1fd8c8	-0.15610039
2	0xbebf0e36	-0.3731553
3	0x3e1120e8	0.14172709
4	0xbec0a1cc	-0.3762344
5	0xbeb2adf6	-0.34898347
6	0x3e91e212	0.2849279
7	0xbe7bd078	-0.24591243
8	0xbecb98f1	-0.39765123
9	0xbe1e6de2	-0.15471604
10	0xbecb09e2	-0.39655977
11	0x3d7ac7c0	0.061225653
12	0x3ea34980	0.31892014
13	0x3e18bd88	0.1491605
14	0x3e8d126c	0.27553117
15	0x3ec452c0	0.38344383
16	0x3e1ebfac	0.15502805
17	0x3d3783f8	0.04480359
18	0xbeca15fd	-0.394699
19	0xbe19ecd4	-0.15031749
20	0xbe9acfd3	-0.30236682
21	0x3e07db14	0.13267165
22	0xbc9f7050	-0.019462734
23	0x3e817e2a	0.25291568
24	0xbea90358	-0.33010364

blocks.1.ffn.time_mix_k f4 [1, 1, 5]
0	0x00000000	0.0
1	0x3e708fdd	0.2349238
2	0x3ee073c7	0.4383833
3	0x3f21a670	0.6314459
4	0x3f516bde	0.8180522

blocks.1.ffn.time_mix_r f4 [1, 1, 5]
0	0x00000000	0.0
1	0x3e708fdd	0.2349238
2	0x3ee073c7	0.4383833
3	0x3f21a670	0.6314459
4	0x3f516bde	0.8180522

blocks.1.ffn.key.weight f4 [20, 5]
0	0x3e3a4eac	0.18194073
1	0xbeb9b92f	-0.36274096
2	0xbe93feee	-0.28905433
3	0x3e8c6d08	0.27426934
4	0x3df08d98	0.11745757
5	0x3dfd55d8	0.12369889
6	0x3e9ac762	0.30230242
7	0xbee32c40	-0.44369698
8	0xbe4a117a	-0.1973323
9	0x3e3c8390	0.18409562
10	0xbe804ba0	-0.25057697
11	0x3e5ffdbc	0.21874136
12	0x3e474d00	0.19462967
13	0xbeb5ec30	-0.3553176
14	0x3e95eac6	0.2928068
15	0x3cc7a030	0.024368376
16	0x3e878d8c	0.2647518
17	0xbeb9560b	-0.36198458
18	0x3e4ef8ec	0.20212144
19	0x3c88de10	0.01670745
20	0x3e1cab64	0.15299755
21	0x3ed28132	0.41114193
22	0xbecd84ed	-0.40140477
23	0xbed68a10	-0.41902208
24	0x3e2c8eec	0.16851395
25	0xbda3422c	-0.07971606
26	0xbe6b42d4	-0.22974712
27	0xbee44e87	-0.44591162
28	0xbea82028	-0.32837033
29	0xbea7a37c	-0.32741916
30	0xbdb7d178	-0.089755
31	0x3ec8ffc4	0.39257634
32	0xbc56e760	-0.013116688
33	0x3c0090e0	0.007847041
34	0x3dab0d98	0.08352202
35	0x3b852240	0.004062921
36	0xbe3de7da	-0.18545476
37	0x3b989c40	0.0046572983
38	0x3e4291e0	0.1900096
39	0xbe7e037c	-0.24806017
40	0xbda65b60	-0.08122897
41	0xbe806e14	-0.25083983
42	0xbb918940	-0.0044414103
43	0x3e696344	0.22791773
44	0xbe242e2a	-0.16033235
45	0x3d42de68	0.047575384
46	0xbee4c35c	-0.44680297
47	0xbe5030c3	-0.20331101
48	0xbd00e2e0	-0.031466365
49	0x3e8bed32	0.27329403
50	0x3e93a77a	0.28838712
51	0xbeda0976	-0.42585343
52	0xbececaaf	-0.4038901
53	0x3ec8348e	0.39102596
54	0xbe4c778e	-0.19967481
55	0xbecec029	-0.40380982
56	0xbc4df440	-0.012570441
57	0xbecc6c50	-0.39926386
58	0x3ebb9cd4	0.36643088
59	0xbe3e0c56	-0.18559393
60	0x3dbcdbf0	0.09221637
61	0x3d0ec4d0	0.034855664
62	0x3e373238	0.1789025
63	0xbca58610	-0.020205528
64	0xbede2658	-0.4338863
65	0x3ed0d3fe	0.40786737
66	0xbce46730	-0.027881235
67	0x3e8e2b48	0.27767396
68	0xbdb6b218	-0.089206874
69	0x3d6bbf00	0.0575552
70	0x3ce842f0	0.02835223
71	0x3e24d620	0.16097307
72	0xbe04fbf4	-0.12986737
73	0xbe341ed0	-0.17589879
74	0x3e57154c	0.21004218
75	0xbca54700	-0.020175457
76	0x3e3fca6c	0.18729562
77	0xbd754e58	-0.059889168
78	0x3e248d68	0.16069567
79	0x3e89bc00	0.26901245
80	0x3ec439ae	0.38325256
81	0xbe53208f	-0.20617889
82	0x3edef7b6	0.43548363
83	0x3e955650	0.29167414
84	0x3e1c17ac	0.15243405
85	0x3ea2185a	0.31659204
86	0xbd930a40	-0.071796894
87	0xbe81ef26	-0.25377768
88	0xbedceaa5	-0.4314777
89	0x3b8e4840	0.004342109
90	0xbdd7822c	-0.10522875
91	0x3e37c5e0	0.17946577
92	0xbeb51255	-0.3536555
93	0x3e4c7680	0.19967079
94	0x3e55192c	0.20810384
95	0x3d10e8f0	0.035378397
96	0xbecaa402	-0.39578253
97	0xbe3fb4ca	-0.1872131
98	0xbeb8d7ad	-0.36102048
99	0xbd2f13a0	-0.042743325

blocks.1.ffn.receptance.weight f4 [5, 5]
0	0x3eabea42	0.33577162
1	0x3eb54990	0.35407686
2	0x3e815946	0.25263423
3	0xbeaea2c1	-0.34108546
4	0xbeb29e67	-0.34886476
5	0xbecd1a88	-0.40059304
6	0xbe795c6e	-0.24351665
7	0xbe5c8bf2	-0.2153776
8	0x3ed6e71c	0.41973197
9	0x3ec88898	0.39166713
10	0x3d08c1e8	0.03338805
11	0xbe497f6e	-0.19677517
12	0x3ea5debc	0.32396495
13	0xbdfc0934	-0.12306443
14	0xbd10c258	-0.03534159
15	0xbe1c0a96	-0.15238413
16	0xbe58bf17	-0.21166645
17	0xbe953bcb	-0.2914718
18	0xbe40bce4	-0.18822056
19	0xbea86090	-0.3288617
20	0x3ea12e3c	0.31480587
21	0x3ed719fe	0.42012018
22	0xbe40f948	-0.18845093
23	0x3ed466b6	0.41484612
24	0x3eb1242e	0.34597915

blocks.1.ffn.value.weight f4 [5, 20]
0	0x3e084748	0.13308442
1	0x3c906e80	0.017630816
2	0x3e283c9c	0.1642937
3	0xbe5d90e9	-0.2163731
4	0x3d34f0c0	0.04417491
5	0xbde36a76	-0.1110429
6	0xbd353bf4	-0.04424663
7	0xbe07a5da	-0.13246861
8	0x3d957ce4	0.072992116
9	0x3d122518	0.035679907
10	0x3e4e13ec	0.20124787
11	0xbc89af40	-0.016807199
12	0xbdc6404a	-0.09680231
13	0xbddbe25f	-0.10736536
14	0x3d9d12cc	0.07669601
15	0xbe4f618e	-0.20252058
16	0x3dc90e44	0.09817174
17	0xbd62277c	-0.055213436
18	0x3e466fc2	0.1937857
19	0xbb14f7c0	-0.0022730678
20	0xbde86219	-0.11346836
21	0x3e1a353e	0.15059373
22	0x3dca15f0	0.098674655
23	0xbd2a3624	-0.04155554
24	0x3e4ae998	0.19815671
25	0x3e546448	0.2074138
26	0x3c16cdb0	0.009204313
27	0x3dcbf360	0.099585295
28	0x3e3818f0	0.17978263
29	0xbe27b937	-0.16379248
30	0xbe0ed05c	-0.1394667
31	0x3d959644	0.073040515
32	0xbe38b7f6	-0.18038926
33	0x3d9297fc	0.07157895
34	0x3c9677f8	0.018367752
35	0x3e295564	0.1653648
36	0x3dda9fc4	0.10675004
37	0xbe45d809	-0.19320692
38	0xbc46d040	-0.012134612
39	0xbdd67382	-0.1047125
40	0xbdac68fe	-0.08418463
41	0x3e4b0064	0.19824368
42	0xbe4659a8	-0.19370139
43	0xbd071e14	-0.03298767
44	0xbe4e72a9	-0.20160927
45	0xbc7706f0	-0.015077338
46	0x3d934f64	0.07192877
47	0xbe382f64	-0.17986828
48	0xbceefb60	-0.0291726
49	0x3e566714	0.20937759
50	0x3e0e1944	0.13876826
51	0x3de806c8	0.113294184
52	0xbdfe7dd7	-0.12426346
53	0xbe24b218	-0.16083562
54	0xbe02b66c	-0.12764901
55	0x3dbb9610	0.091594815
56	0xbcafd438	-0.021463498
57	0xbe2aa90d	-0.1666605
58	0xbdc106f4	-0.09425154
59	0x3e5fe68c	0.2186529
60	0xbe108e7c	-0.14116853
61	0x3d9a17a8	0.07524043
62	0x3dd590b8	0.104279935
63	0xbde2e84b	-0.110794626
64	0x3e5b84b2	0.21437338
65	0xbdb3cf3c	-0.08779761
66	0x3d829e1c	0.06377813
67	0x3decb5c0	0.115581036
68	0xbe5048ff	-0.20340346
69	0x3e47d4ea	0.19514814
70	0x3e2ef0ec	0.17084092
71	0xbda16ffc	-0.078826874
72	0xbe31a60f	-0.17348503
73	0xbd746228	-0.05966392
74	0x3e0a0c88	0.13481343
75	0x3d84ba34	0.06480828
76	0xbe41a32b	-0.189099
77	0xbb8a10a0	-0.0042134076
78	0xbe05deb2	-0.13073233
79	0xbe592f50	-0.21209455
80	0xbe3b7201	-0.18305208
81	0x3e49ef4e	0.19720194
82	0x3e4a8e86	0.19780931
83	0x3e3962e8	0.18104136
84	0xbe2c89ac	-0.16849393
85	0xbe160bb5	-0.14652903
86	0x3e2414a4	0.16023499
87	0xbe38f227	-0.18061124
88	0xbe4e5bc0	-0.20152187
89	0x3d8b169c	0.06791422
90	0xbd0264b8	-0.031834334
91	0xbe59f716	-0.21285662
92	0x3dde3898	0.10850638
93	0x3e1d7cfc	0.15379709
94	0xbe4f9a47	-0.20273696
95	0xbcbcc820	-0.023044646
96	0x3cbab290	0.022790223
97	0xbdf97e99	-0.1218235
98	0x3e5d60da	0.21618977
99	0x3e5bf6ec	0.21480912

blocks.2.ln1.weight f4 [5]
0	0x3f800000	1.0
1	0x3f800000	1.0
2	0x3f800000	1.0
3	0x3f800000	1.0
4	0x3f800000	1.0

blocks.2.ln1.bias f4 [5]
0	0x00000000	0.0
1	0x00000000	0.0
2	0x00000000	0.0
3	0x00000000	0.0
4	0x00000000	0.0

blocks.2.ln2.weight f4 [5]
0	0x3f800000	1.0
1	0x3f800000	1.0
2	0x3f800000	1.0
3	0x3f800000	1.0
4	0x3f800000	1.0

blocks.2.ln2.bias f4 [5]
0	0x00000000	0.0
1	0x00000000	0.0
2	0x00000000	0.0
3	0x00000000	0.0
4	0x00000000	0.0

blocks.2.att.time_decay f4 [5]
0	0xc0a00000	-5.0
1	0xc03e035c	-2.968955
2	0xbf781545	-0.96907455
3	0x3f827575	1.0192095
4	0x40400000	3.0

blocks.2.att.time_first f4 [5]
0	0xbf9a1bc8	-1.2039728
1	0xbf343790	-0.7039728
2	0xbfda1bc8	-1.7039728
3	0xbf9a1bc8	-1.2039728
4	0xbf343790	-0.7039728

blocks.2.att.time_mix_k f4 [1, 1, 5]
0	0x00000000	0.0
1	0x3e8d48c9	0.27594593
2	0x3ef5fd83	0.48044977
3	0x3f2a1f48	0.6645398
4	0x3f5625a1	0.8365117

blocks.2.att.time_mix_v f4 [1, 1, 5]
0	0x3d888889	0.06666667
1	0x3eaf6aeb	0.3426126
2	0x3f0c0fd3	0.54711646
3	0x3f3b3059	0.7312065
4	0x3f6736b2	0.90317833

blocks.2.att.time_mix_r f4 [1, 1, 5]
0	0x00000000	0.0
1	0x3f067a6d	0.52530557
2	0x3f3171f1	0.69314486
3	0x3f50b07f	0.8151931
4	0x3f6a23e3	0.9146101

blocks.2.att.key.weight f4 [5, 5]
0	0xbe0128d6	-0.12613234
1	0xbed88651	-0.42289975
2	0x3e1edcc4	0.15513903
3	0x3e02c044	0.12768656
4	0xbdb23c38	-0.08702892
5	0xbe38be0a	-0.18041244
6	0x3b9880c0	0.00465402
7	0x3e82ad62	0.25522906
8	0xbe4a93f3	-0.19783
9	0xbecdfc43	-0.40231523
10	0x3edc167e	0.4298591
11	0xbe59dbd7	-0.21275268
12	0x3e9c22a6	0.30495185
13	0x3e8f3eee	0.279777
14	0xbeb0f7ac	-0.3456396
15	0x3ebe773a	0.37200338
16	0xbe0cc45c	-0.1374678
17	0xbe5b7d1e	-0.21434447
18	0xbe656376	-0.22401223
19	0x3e03fa70	0.12888503
20	0xbdacc5b4	-0.084361464
21	0x3de28d98	0.11062163
22	0x3d662ca0	0.0561949
23	0xbd46dc48	-0.04854992
24	0x3e24a450	0.16078305

blocks.2.att.value.weight f4 [5, 5]
0	0xbe7272ea	-0.23676649
1	0x3ee082dc	0.43849838
2	0xbedf3f57	-0.43603012
3	0x3e310458	0.17286813
4	0xbe32abb8	-0.17448318
5	0xbdb4bbd8	-0.08824891
6	0xbe4161d2	-0.18884972
7	0x3cd9d040	0.02658856
8	0x3e8e2bf6	0.27767915
9	0x3ec76574	0.3894459
10	0x3c1402e0	0.009033889
11	0xbecd658f	-0.40116546
12	0x3ea63c1e	0.3246774
13	0x3e9dc740	0.30816078
14	0xbe95c5a6	-0.29252356
15	0xbd1e9db8	-0.03872463
16	0xbeace4fe	-0.33768457
17	0xbebb9336	-0.3663575
18	0x3e77acdc	0.24187034
19	0x3dfd5650	0.123699784
20	0xbed4fc46	-0.4159872
21	0x3ea9b178	0.3314321
22	0xbec4921c	-0.38392723
23	0xbe0de826	-0.13858089
24	0x3eaccb2e	0.33748764

blocks.2.att.receptance.weight f4 [5, 5]
0	0x3e9f6b36	0.31136483
1	0xbd4744e0	-0.04864967
2	0x3ea2ce7c	0.3179816
3	0x3eb241ee	0.34815925
4	0x3e884984	0.26618588
5	0x3e859caa	0.26096088
6	0xbebfef68	-0.3748734
7	0xbe481ffa	-0.19543448
8	0xbe97d7f2	-0.2965694
9	0xbec3cc81	-0.38241962
10	0xbdf9ac0c	-0.121910185
11	0x3e9b2ace	0.30306095
12	0x3cbb4280	0.022858858
13	0xbec0aa40	-0.3762989
14	0x3e8aa3fe	0.2707824
15	0xbe2937a6	-0.16525134
16	0x3ecc311c	0.39881217
17	0xbeacd928	-0.33759427
18	0xbe32239a	-0.17396393
19	0xbe866e64	-0.26256096
20	0x3c9e5690	0.019328386
21	0xbeb55b4a	-0.3542121
22	0xbe50dc4c	-0.20396537
23	0xbe5f3a8f	-0.21799682
24	0xbeb7b896	-0.35883015

blocks.2.att.output.weight f4 [5, 5]
0	0xbecf7ef8	-0.40526557
1	0x3ed20e1a	0.41026384
2	0x3d887050	0.06662047
3	0xbe3f2892	-0.1866782
4	0x3eaae49e	0.33377546
5	0x3ec4d1fc	0.38441455
6	0x3d888cd0	0.06667483
7	0xbedf80df	-0.43653008
8	0x3cec3650	0.028834492
9	0xbe627657	-0.22115456
10	0x3d8a0470	0.06739128
11	0x3e19ae48	0.1500789
12	0xbd457428	-0.04820648
13	0x3e89d902	0.26923376
14	0xbe92be8c	-0.28661
15	0xbe900b2e	-0.2813353
16	0xbec590b5	-0.38586965
17	0x3e32682c	0.17422551
18	0x3eb8c898	0.3609054
19	0x3eb92bfc	0.3616637
20	0xbe15442a	-0.14576784
21	0x3dc67d58	0.09691876
22	0x3e8b3c5c	0.27194488
23	0x3e5bc0b4	0.21460229
24	0x3d17bad8	0.037043422

blocks.2.ffn.time_mix_k f4 [1, 1, 5]
0	0x00000000	0.0
1	0x3e8d48c9	0.27594593
2	0x3ef5fd83	0.48044977
3	0x3f2a1f48	0.6645398
4	0x3f5625a1	0.8365117

blocks.2.ffn.time_mix_r f4 [1, 1, 5]
0	0x00000000	0.0
1	0x3e8d48c9	0.27594593
2	0x3ef5fd83	0.48044977
3	0x3f2a1f48	0.6645398
4	0x3f5625a1	0.8365117

blocks.2.ffn.key.weight f4 [20, 5]
0	0xbcae5090	-0.02127865
1	0xbe03c602	-0.12868503
2	0x3cc74d60	0.024328887
3	0x3e13a378	0.14417827
4	0x3e2bcb18	0.16776693
5	0x3d8c74f8	0.068582475
6	0xbeb95cf8	-0.36203742
7	0x3df162a8	0.11786395
8	0xbedf3044	-0.4359151
9	0x3e464f20	0.19366121
10	0xbe8ab909	-0.27094296
11	0x3df43a20	0.11925149
12	0x3eb9dbfe	0.36300653
13	0x3df587d8	0.11988801
14	0xbe9d24be	-0.30692095
15	0xbc994c00	-0.018712997
16	0x3d4480c0	0.047974348
17	0xbecadf20	-0.39623356
18	0x3e57c9cc	0.21073073
19	0xbc9261b0	-0.017868847
20	0x3e40f294	0.18842536
21	0x3e47b0f0	0.1950109
22	0xbd9e752c	-0.077371925
23	0x3da86f00	0.082242966
24	0xbe09df2c	-0.1346404
25	0x3eb3fb68	0.35152745
26	0x3d81a430	0.063301444
27	0x3e7a1aa0	0.24424219
28	0xbe13cb84	-0.14433104
29	0xbe900e08	-0.28135705
30	0x3ed7baf8	0.42134833
31	0xbeae0dc8	-0.3399489
32	0xbce1ddb0	-0.02757153
33	0xbdaa921c	-0.083286494
34	0x3e0425bc	0.1290502
35	0x3d4e4220	0.05035603
36	0x3e342318	0.17591512
37	0xbe481ef6	-0.1954306
38	0x3e671288	0.22565663
39	0xbe87dade	-0.2653417
40	0x3eb059a8	0.34443402
41	0x3ec3f7f0	0.382751
42	0xbe860808	-0.26178002
43	0xbebc5065	-0.36780086
44	0xbea03957	-0.31293747
45	0x3e81e8c6	0.25372905
46	0x3ee3e9fa	0.44514447
47	0x3dcbacf0	0.099450946
48	0x3eb425a8	0.3518498
49	0xbe17e82c	-0.1483466
50	0x3eac2474	0.33621562
51	0xbed2a870	-0.41144133
52	0x3de3b938	0.11119312
53	0x3e93d182	0.2887078
54	0x3d371108	0.044693977
55	0x3dcd6918	0.10029811
56	0xbcfbd010	-0.03073886
57	0xbe1fdfd4	-0.15612727
58	0x3e0845c4	0.13307863
59	0xbe8f07b4	-0.27935565
60	0x3eb03aa4	0.3441974
61	0xbeb3de39	-0.3513048
62	0x3e2d5170	0.16925597
63	0xbeaf3145	-0.34217277
64	0x3eda2932	0.42609555
65	0xbe04b5b6	-0.12959942
66	0xbe21ff84	-0.15820128
67	0x3e10bf10	0.14135385
68	0xbe834073	-0.25635108
69	0xbd30fb60	-0.04320848
70	0x3e45ca6c	0.19315499
71	0x3bc74c40	0.0060820878
72	0x3d007988	0.0313659
73	0xbe9ae958	-0.30256152
74	0xbec998aa	-0.39374286
75	0xbd988c50	-0.074486375
76	0x3d20c690	0.039251864
77	0x3d7cb850	0.06169921
78	0xbe5d1768	-0.2159096
79	0x3db8b798	0.09019393
80	0x3cac17d0	0.021007448
81	0xbdad6e00	-0.084682465
82	0x3e46a204	0.19397742
83	0x3ed826ca	0.42217094
84	0x3de7d0b8	0.11319107
85	0xbec9d851	-0.3942285
86	0x3d9424d8	0.0723359
87	0x3e29da00	0.16587067
88	0xbece9b12	-0.40352684
89	0x3ece878c	0.4033779
90	0xbe8c0cb2	-0.27353436
91	0x3cdd1e50	0.026991993
92	0x3e9106ec	0.28325593
93	0x3e11d470	0.14241195
94	0xbeabd319	-0.33559492
95	0x3cb3d5e0	0.02195257
96	0xbe205ac2	-0.15659621
97	0x3dd6d898	0.10490531
98	0xbeaebb04	-0.34127057
99	0xbea17aaa	-0.31538898

blocks.2.ffn.receptance.weight f4 [5, 5]
0	0xbe934008	-0.2875979
1	0x3eadbef0	0.33934736
2	0xbde3224c	-0.11090526
3	0xbe35ceee	-0.17754719
4	0xbedca73c	-0.4309634
5	0xbe8fcd4f	-0.28086326
6	0xbe13d244	-0.14435679
7	0xbe02aeea	-0.12762037
8	0xbe88ad4c	-0.26694715
9	0x3e0b5fbc	0.13610739
10	0x3ed4a612	0.41532952
11	0xbe680d08	-0.22661221
12	0xbe6ce13e	-0.23132798
13	0x3e916c14	0.2840277
14	0xbeca6b02	-0.39534765
15	0xbd99cf40	-0.07510233
16	0x3eab1af8	0.33419013
17	0x3ec06838	0.37579513
18	0xbe4f78f5	-0.20260985
19	0xbeb9ac84	-0.3626443
20	0x3bfeb680	0.0077732205
21	0xbe6e0dcc	-0.2324745
22	0xbe692a36	-0.22770008
23	0xbea61f64	-0.32445824
24	0xbdea377c	-0.11436364

blocks.2.ffn.value.weight f4 [5, 20]
0	0xbdd006fe	-0.10157584
1	0x3d17b850	0.03704101
2	0xbc07c2c0	-0.008286178
3	0x3e4e3f2c	0.20141286
4	0x3e2c0358	0.1679815
5	0xbdb8de32	-0.090267554
6	0xbdcdf055	-0.10055605
7	0xbbe70180	-0.0070497394
8	0xbd811ce0	-0.063043356
9	0x3e452b3a	0.19254771
10	0xbd04fc40	-0.032467127
11	0xbdad2500	-0.08454323
12	0x3e47bc02	0.19505313
13	0x3e15456c	0.14577264
14	0xbdfcef66	-0.12350349
15	0xbe280706	-0.16408929
16	0x3d9a313c	0.07528922
17	0xbd8c52fe	-0.06851767
18	0xbe1b81da	-0.15186253
19	0x3e23751e	0.15962645
20	0x3d5d4c10	0.054027617
21	0x3e17345a	0.14766064
22	0x3e56a32c	0.20960683
23	0x3e182878	0.14859188
24	0xbd60fdb4	-0.05492945
25	0x3cddb100	0.02706194
26	0xbd3c6e8c	-0.046003863
27	0x3e2c8b06	0.16849908
28	0xbcee0210	-0.029053718
29	0x3e12e192	0.14343861
30	0x3e59c700	0.21267319
31	0x3d0c73c0	0.034290075
32	0xbe3dbc10	-0.18528771
33	0x3e357ce4	0.17723423
34	0xbe3bbbab	-0.18333308
35	0xbcb36be8	-0.02190204
36	0x3d1b0ba0	0.037852883
37	0x3e387168	0.18012011
38	0xbe10b231	-0.14130475
39	0xbe4c4ca0	-0.19951105
40	0x3e5eca74	0.21756917
41	0xbde5600a	-0.111999586
42	0xbc089930	-0.008337304
43	0x3e1fc534	0.15602571
44	0x3d9a00e4	0.07519701
45	0xbd86fa64	-0.06590727
46	0xbe303e11	-0.17211176
47	0x3df0a6e0	0.11750579
48	0x3e32afd6	0.17449889
49	0x3d59ea18	0.053201765
50	0x3d912e40	0.070888996
51	0xbe1e0955	-0.15433247
52	0xbe50f7ec	-0.20407075
53	0x3d343680	0.043997288
54	0x3d34b5a0	0.044118524
55	0xbe4c712f	-0.19965051
56	0xbe299be8	-0.1656338
57	0x3dd609f0	0.10451114
58	0x3e466f56	0.19378409
59	0xbe4689da	-0.19388524
60	0x3e4c2310	0.1993525
61	0xbde0d781	-0.10978604
62	0xbe3e8819	-0.18606605
63	0x3de407d4	0.111343056
64	0x3cf05c70	0.029340953
65	0x3e2b7790	0.16744828
66	0xbe63c3d7	-0.22242676
67	0xbe551c66	-0.20811614
68	0x3cf8aac0	0.030354857
69	0xbe2ae0f2	-0.16687372
70	0xbd8ee624	-0.069774896
71	0xbdaac2ce	-0.08337937
72	0xbe2fefe0	-0.17181349
73	0x3daf05f8	0.0854606
74	0xbdeef5ff	-0.11668014
75	0xbd9cca3a	-0.07655759
76	0xbdb889ac	-0.09010634
77	0xbe2aef8e	-0.16692945
78	0xbe34c99a	-0.1765503
79	0xbe644ded	-0.22295351
80	0x3e1c3b0a	0.15256897
81	0xbe1bcb00	-0.15214157
82	0x3e22db14	0.15903884
83	0x3b69a600	0.0035651922
84	0xbe33a1f8	-0.17542255
85	0x3d0cd1c8	0.03437975
86	0x3d6ed908	0.058312446
87	0x3e482ab2	0.19547537
88	0x3e084484	0.13307387
89	0xbe50b56b	-0.20381705
90	0xbc402820	-0.011728317
91	0xbd71603c	-0.058929667
92	0xbd8dd8e8	-0.06926137
93	0x3e3cac40	0.18425083
94	0xbdb7222e	-0.08942066
95	0x3e063cc0	0.13109112
96	0x3e463d86	0.19359407
97	0xbe2dd23c	-0.1697473
98	0xbe3d8f02	-0.18511584
99	0x3deb1c84	0.11480048

blocks.3.ln1.weight f4 [5]
0	0x3f800000	1.0
1	0x3f800000	1.0
2	0x3f800000	1.0
3	0x3f800000	1.0
4	0x3f800000	1.0

blocks.3.ln1.bias f4 [5]
0	0x00000000	0.0
1	0x00000000	0.0
2	0x00000000	0.0
3	0x00000000	0.0
4	0x00000000	0.0

blocks.3.ln2.weight f4 [5]
0	0x3f800000	1.0
1	0x3f800000	1.0
2	0x3f800000	1.0
3	0x3f800000	1.0
4	0x3f800000	1.0

blocks.3.ln2.bias f4 [5]
0	0x00000000	0.0
1	0x00000000	0.0
2	0x00000000	0.0
3	0x00000000	0.0
4	0x00000000	0.0

blocks.3.att.time_decay f4 [5]
0	0xc0a00000	-5.0
1	0xc05599ff	-3.3375242
2	0xbfad32b6	-1.3531101
3	0x3f4632c8	0.77421236
4	0x40400000	3.0

blocks.3.att.time_first f4 [5]
0	0xbf9a1bc8	-1.2039728
1	0xbf343790	-0.7039728
2	0xbfda1bc8	-1.7039728
3	0xbf9a1bc8	-1.2039728
4	0xbf343790	-0.7039728

blocks.3.att.time_mix_k f4 [1, 1, 5]
0	0x00000000	0.0
1	0x3ea5f48a	0.3241313
2	0x3f06cc2c	0.5265529
3	0x3f3309cc	0.69936824
4	0x3f5afab0	0.8553877

blocks.3.att.time_mix_v f4 [1, 1, 5]
0	0x3dcccccd	0.1
1	0x3ed927bd	0.4241313
2	0x3f2065c6	0.62655294
3	0x3f4ca366	0.79936826
4	0x3f74944a	0.9553877

blocks.3.att.time_mix_r f4 [1, 1, 5]
0	0x00000000	0.0
1	0x3f11bf4e	0.5693253
2	0x3f39c385	0.72563964
3	0x3f56169a	0.8362824
4	0x3f6cc465	0.92487174

blocks.3.att.key.weight f4 [5, 5]
0	0xbe0eadee	-0.13933536
1	0x3ed1e8f4	0.40998042
2	0xbec0106a	-0.37512523
3	0x3ed24c06	0.41073626
4	0xbbc13f40	-0.0058974326
5	0x3e60d218	0.21955144
6	0x3dcd2228	0.100162804
7	0x3ebb2740	0.36553383
8	0xbece460b	-0.40287814
9	0xbe9b4578	-0.30326438
10	0x3ca37870	0.01995489
11	0x3de31478	0.110878885
12	0xbea9cfbf	-0.3316631
13	0xbec7f1f9	-0.39051798
14	0xbe7d28c5	-0.24722584
15	0xbb49b180	-0.0030775964
16	0x3df42ea8	0.119229615
17	0xbdc97d14	-0.0983831
18	0x3d692cd0	0.056927502
19	0x3dc2b458	0.09507054
20	0x3eb8de98	0.36107326
21	0x3e8664be	0.26248735
22	0x3ec4e92a	0.3845914
23	0x3d5bc050	0.0536502
24	0x3eb686a2	0.35649592

blocks.3.att.value.weight f4 [5, 5]
0	0xbb0a5700	-0.0021108985
1	0x3dd01568	0.10160333
2	0xbe284cd0	-0.16435552
3	0x3cccaf00	0.02498579
4	0x3e7bac10	0.24577355
5	0xbed303c6	-0.41213816
6	0x3e956b86	0.29183596
7	0xbdab4798	-0.08363265
8	0xbed5cd7b	-0.41758332
9	0xbe000784	-0.12502867
10	0xbe88f6be	-0.2675075
11	0x3d8f08e0	0.06984115
12	0xbd6c53f0	-0.057697237
13	0xbe3d4d48	-0.18486512
14	0xbebd2791	-0.3694425
15	0xbde9a5fc	-0.11408612
16	0xbea082f4	-0.3134991
17	0xbe31cbfc	-0.1736297
18	0xbec7649c	-0.38943946
19	0xbccede40	-0.025252461
20	0x3e220744	0.15823084
21	0xbd936a20	-0.07197976
22	0x3de768f0	0.11299312
23	0xbedc10a8	-0.42981458
24	0x3e9c022e	0.30470413

blocks.3.att.receptance.weight f4 [5, 5]
0	0x3ed6db0e	0.41964
1	0x3e3ea1f0	0.18616462
2	0x3ebc150e	0.36734813
3	0xbe8f6ed2	-0.28014237
4	0x3dbde018	0.09271258
5	0xbdf9bb2c	-0.12193903
6	0xbedd908c	-0.43274343
7	0x3ecba486	0.3977396
8	0x3ecb2db6	0.39683312
9	0x3d3540c0	0.044251204
10	0x3dcd87e0	0.10035682
11	0xbd46d6e8	-0.048544794
12	0x3df626b8	0.12019104
13	0x3e8d3958	0.27582812
14	0xbcb9eaa0	-0.022694886
15	0x3e8724dc	0.2639531
16	0x3eac6a78	0.3367498
17	0x3eb76890	0.35821962
18	0x3e91e3ee	0.2849421
19	0x3e88535e	0.26626104
20	0xbe34cfda	-0.17657414
21	0xbd2b2c00	-0.04179001
22	0xbd8c68bc	-0.06855914
23	0xbd51f320	-0.051257253
24	0x3e4d121c	0.2002644

blocks.3.att.output.weight f4 [5, 5]
0	0xbdc5f520	-0.096658945
1	0xbdef9aa4	-0.11699417
2	0xbd132f08	-0.035933524
3	0x3dee3688	0.11631495
4	0x3eb83f28	0.35985684
5	0xbec745ad	-0.38920346
6	0xbe85af59	-0.26110342
7	0x3ec93ea8	0.39305615
8	0xbe02f7a6	-0.12789783
9	0x3e24fd04	0.16112143
10	0xbdcc0c58	-0.09963292
11	0xbea75b44	-0.32686818
12	0xbe959b8e	-0.2922024
13	0x3e10504c	0.14093131
14	0xbebf70cc	-0.37390745
15	0xbeabafce	-0.33532566
16	0x3e7a95f4	0.24471265
17	0xbe82230b	-0.2541736
18	0xbe4eab4c	-0.20182532
19	0x3ead3a1a	0.3383339
20	0xbedaeece	-0.4276032
21	0xbe87865b	-0.26469693
22	0x3e9a00c8	0.3007872
23	0xbcc6ce80	-0.024268389
24	0x3e18f744	0.14938074

blocks.3.ffn.time_mix_k f4 [1, 1, 5]
0	0x00000000	0.0
1	0x3ea5f48a	0.3241313
2	0x3f06cc2c	0.5265529
3	0x3f3309cc	0.69936824
4	0x3f5afab0	0.8553877

blocks.3.ffn.time_mix_r f4 [1, 1, 5]
0	0x00000000	0.0
1	0x3ea5f48a	0.3241313
2	0x3f06cc2c	0.5265529
3	0x3f3309cc	0.69936824
4	0x3f5afab0	0.8553877

blocks.3.ffn.key.weight f4 [20, 5]
0	0x3ea25a5c	0.31709564
1	0xbe3f45ba	-0.18678942
2	0x3de1b1b0	0.11020219
3	0x3ed5be7c	0.4174689
4	0xbd9ff718	-0.07810801
5	0xbebee960	-0.37287426
6	0xbeaa0d3b	-0.3321322
7	0xbe049468	-0.12947237
8	0x3ed3001c	0.4121102
9	0x3e05df48	0.13073456
10	0xbea8354c	-0.32853162
11	0xbe132be6	-0.14372215
12	0xbecc508f	-0.3990521
13	0x3ed783e6	0.42092818
14	0xbdc464ac	-0.09589514
15	0x3ea9f48c	0.33194387
16	0x3de156c0	0.110028744
17	0x3e56a60c	0.2096178
18	0xbebc1133	-0.36731872
19	0x3e3732e4	0.17890507
20	0x3d76aac0	0.060221434
21	0x3ede6740	0.43438148
22	0xbed0746d	-0.40713826
23	0x3ee12cf8	0.4397962
24	0xbd5b9610	-0.053609908
25	0xbd3c5910	-0.045983374
26	0xbd629d60	-0.055325866
27	0x3eb4f190	0.35340548
28	0x3e4379c0	0.19089413
29	0x3ed377be	0.41302294
30	0xbec5a4b2	-0.38602215
31	0xbea32360	-0.31862926
32	0xbe10efee	-0.14154026
33	0xbcd40830	-0.02588281
34	0xbd2e6098	-0.042572588
35	0xbdafafcc	-0.085784525
36	0xbe1e29ac	-0.15445584
37	0xbeb40733	-0.35161743
38	0x3e8d5ab4	0.27608263
39	0xbe0d505e	-0.13800189
40	0xbd41cd88	-0.04731515
41	0xbe2ea2ec	-0.17054337
42	0xbe84afc2	-0.25915343
43	0x3d57ae48	0.052656442
44	0xbe287c9e	-0.16453788
45	0x3ed2e96a	0.41193706
46	0x3e958a52	0.29207093
47	0xbe3fe4bc	-0.18739599
48	0x3ec21556	0.37906903
49	0xbec774ad	-0.38956204
50	0xbe69e69a	-0.22841874
51	0x3e7aa2e0	0.24476194
52	0x3d01bd80	0.031674862
53	0xbebc4f9d	-0.3677949
54	0xbe50c00a	-0.20385757
55	0xbedbaea5	-0.4290668
56	0xbea74bb4	-0.32674944
57	0x3e8e9dd0	0.27854776
58	0x3ecb09f2	0.39656025
59	0xbeb1ebbf	-0.34750172
60	0x3de00028	0.1093753
61	0x3e9dd860	0.30829144
62	0x3e8dafca	0.2767318
63	0xbede05da	-0.4336384
64	0x3d9e55f0	0.07731235
65	0x3e80505c	0.2506131
66	0xbed0aaa8	-0.407552
67	0x3e31ce48	0.17363846
68	0xbb970dc0	-0.0046097934
69	0x3ed1a516	0.40946263
70	0x3e8e01bc	0.27735698
71	0xbecdedf5	-0.4022061
72	0x3d055e40	0.032560587
73	0xbdb833fc	-0.0899429
74	0x3e2efe34	0.17089158
75	0xbecf0c8b	-0.40439257
76	0xbed6ea72	-0.41975743
77	0x3d5f3fa0	0.054504037
78	0xbe1ef53c	-0.15523237
79	0x3edd427a	0.4321478
80	0xbdef48f0	-0.116838336
81	0x3e9dbd20	0.30808353
82	0xbe730f2d	-0.23736258
83	0x3d752900	0.059853554
84	0x3e94ea66	0.29085082
85	0xbe20b086	-0.15692338
86	0x3dd43198	0.10361022
87	0x3ea3f9ca	0.3202651
88	0xbe7d7e4c	-0.2475521
89	0x3ec9b132	0.39393002
90	0xbe854cf2	-0.26035267
91	0xbe056bc8	-0.13029397
92	0x3eadab46	0.33919734
93	0x3e7847f0	0.24246192
94	0xbde51f38	-0.11187595
95	0xbd7a3558	-0.06108603
96	0x3cabfd70	0.020994872
97	0x3eae3e8e	0.340321
98	0xbe2f4152	-0.17114761
99	0x3e42919c	0.19000858

blocks.3.ffn.receptance.weight f4 [5, 5]
0	0xbe498f5a	-0.1968359
1	0x3e1df9e8	0.15427363
2	0x3e8d5c78	0.2760961
3	0x3d320e78	0.04347083
4	0xbe97fd6e	-0.2968554
5	0x3bc9d8c0	0.006159872
6	0x3e987a6c	0.297809
7	0x3ea034a0	0.3129015
8	0x3ece0586	0.4023859
9	0xbeae9d48	-0.3410437
10	0xbeb1b2a6	-0.3470661
11	0xbe7b4d0b	-0.24541108
12	0xbbd887c0	-0.0066079795
13	0x3e984e16	0.29747075
14	0xbe2ea2e2	-0.17054322
15	0xbdb28bdc	-0.08718082
16	0xbe0acca8	-0.13554633
17	0x3ea8148c	0.32828176
18	0x3eb8d6d4	0.361014
19	0xbe0f5038	-0.13995445
20	0xbe8f3c48	-0.27975678
21	0x3e55a18c	0.20862406
22	0x3d5d1cc0	0.053982496
23	0x3e3eec5c	0.18644851
24	0xbda41a78	-0.08012861

blocks.3.ffn.value.weight f4 [5, 20]
0	0xbd04e11c	-0.032441244
1	0xbe4e0005	-0.20117195
2	0x3dde51c8	0.10855442
3	0xbe043ecc	-0.1291458
4	0x3e4f7e88	0.20263112
5	0xbcb74690	-0.022372514
6	0xbd5b52b0	-0.053545654
7	0x3e4fdd12	0.20299175
8	0x3dbf8568	0.09351617
9	0xbe1da8ca	-0.15396419
10	0x3e5fae68	0.21843874
11	0x3dbe13f4	0.092811495
12	0xbd43b644	-0.047781244
13	0xbe02988e	-0.12753507
14	0x3dc28cf0	0.09499538
15	0xbe3bbe28	-0.18334258
16	0x3e2d39ce	0.16916582
17	0xbe61d58f	-0.22054122
18	0x3e39591e	0.18100402
19	0xbe242023	-0.16027884
20	0xbe44edb8	-0.19231308
21	0xbe0065be	-0.12538812
22	0xbd8be20e	-0.06830226
23	0xbe0a3e5c	-0.1350035
24	0xbced0d98	-0.028937146
25	0xbdb1a05c	-0.08673164
26	0x3dfc5ab4	0.12321988
27	0xbd6ef9a4	-0.058343545
28	0xbe490e22	-0.19634297
29	0x3e186f92	0.1488631
30	0xbdf925a1	-0.1216538
31	0xbdcbf18f	-0.09958183
32	0x3e0381e2	0.12842515
33	0x3e466d68	0.19377673
34	0xbc7e7030	-0.015529677
35	0x3d390398	0.045169443
36	0xbc4e2470	-0.01258193
37	0x3d14bbb8	0.036311835
38	0x3e50e748	0.20400727
39	0xbe60eefe	-0.21966168
40	0xbd2357c0	-0.039878607
41	0xbdc27b54	-0.09496179
42	0xbe25480f	-0.1614077
43	0xbdcb5745	-0.09928755
44	0xbe61a365	-0.22034986
45	0xbe2a2a9d	-0.16617818
46	0xbe647792	-0.22311237
47	0xbe103ed6	-0.1408647
48	0xbd2bbaf0	-0.041926324
49	0x3cbd3100	0.023094654
50	0xbe2865b3	-0.16445045
51	0xbd76f5c0	-0.06029296
52	0xbe54ae45	-0.20769604
53	0x3e445482	0.19172862
54	0xbd77c210	-0.060487807
55	0x3da09210	0.07840359
56	0xbe4843dc	-0.19557136
57	0xbde30c28	-0.11086303
58	0x3e310f36	0.17290959
59	0xbe2b5edf	-0.16735409
60	0xbda84b3e	-0.08217476
61	0xbc30aec0	-0.010783851
62	0x3ccbc2f0	0.024873227
63	0x3e3729aa	0.17886987
64	0xbe0bf750	-0.13668561
65	0xbd9a0c08	-0.07521826
66	0xbdc4d3a4	-0.0961068
67	0x3dd44d98	0.10366362
68	0x3e2f86a4	0.17141205
69	0xbe3af989	-0.18259253
70	0x3d8f1934	0.06987229
71	0xbe2e6cba	-0.17033663
72	0x3c7544e0	0.014970034
73	0x3d5ff5e8	0.054677874
74	0x3dcb0f6c	0.09915051
75	0xbd484840	-0.048897028
76	0xbdb74734	-0.08949128
77	0x3dded8b8	0.108811796
78	0xbda0ef2a	-0.07858117
79	0xbd916596	-0.07099454
80	0xbd0ff538	-0.03514597
81	0x3e535f1c	0.2064175
82	0x3e27954a	0.16365543
83	0x3d8df6c8	0.069318354
84	0x3e297524	0.16548592
85	0xbdb0dc56	-0.08635776
86	0x3e190088	0.14941609
87	0xbdc4e03e	-0.09613083
88	0x3d9e1b90	0.07720101
89	0x3e38d8fa	0.1805152
90	0xbd328364	-0.043582335
91	0x3d1d1148	0.03834656
92	0x3e5e8fe2	0.21734574
93	0xbe1f765e	-0.15572497
94	0x3d399378	0.045306653
95	0x3d2a4b78	0.04157588
96	0x3e6493b2	0.22321966
97	0xbe02f16f	-0.12787412
98	0x3e2fa97a	0.17154494
99	0x3de9fdf0	0.11425388

blocks.4.ln1.weight f4 [5]
0	0x3f800000	1.0
1	0x3f800000	1.0
2	0x3f800000	1.0
3	0x3f800000	1.0
4	0x3f800000	1.0

blocks.4.ln1.bias f4 [5]
0	0x00000000	0.0
1	0x00000000	0.0
2	0x00000000	0.0
3	0x00000000	0.0
4	0x00000000	0.0

blocks.4.ln2.weight f4 [5]
0	0x3f800000	1.0
1	0x3f800000	1.0
2	0x3f800000	1.0
3	0x3f800000	1.0
4	0x3f800000	1.0

blocks.4.ln2.bias f4 [5]
0	0x00000000	0.0
1	0x00000000	0.0
2	0x00000000	0.0
3	0x00000000	0.0
4	0x00000000	0.0

blocks.4.att.time_decay f4 [5]
0	0xc0a00000	-5.0
1	0xc068e8d1	-3.63921
2	0xbfd9abdf	-1.7005576
3	0x3f0a082d	0.53918725
4	0x40400000	3.0

blocks.4.att.time_first f4 [5]
0	0xbf9a1bc8	-1.2039728
1	0xbf343790	-0.7039728
2	0xbfda1bc8	-1.7039728
3	0xbf9a1bc8	-1.2039728
4	0xbf343790	-0.7039728

blocks.4.att.time_mix_k f4 [1, 1, 5]
0	0x00000000	0.0
1	0x3ec2ef25	0.38073078
2	0x3f13bb83	0.57707995
3	0x3f3c6bef	0.73602194
4	0x3f5feba9	0.87468964

blocks.4.att.time_mix_v f4 [1, 1, 5]
0	0x3e088889	0.13333334
1	0x3f0399b5	0.51406413
2	0x3f35dda5	0.7104133
3	0x3f5e8e11	0.86935526
4	0x3f8106e6	1.008023

blocks.4.att.time_mix_r f4 [1, 1, 5]
0	0x00000000	0.0
1	0x3f1df5ee	0.61703384
2	0x3f4278ef	0.7596578
3	0x3f5ba076	0.8579172
4	0x3f6f6c71	0.93524843

blocks.4.att.key.weight f4 [5, 5]
0	0x3e3143fc	0.1731109
1	0xbec7a433	-0.38992462
2	0xbeae34fc	-0.340248
3	0xbe6ed4d9	-0.23323382
4	0xbe16ff48	-0.1474582
5	0x3ecc16d6	0.39861172
6	0xbe858c9d	-0.26083842
7	0xbe2d5660	-0.1692748
8	0xbe2dba1e	-0.1696553
9	0x3d87b4a0	0.06626248
10	0x3e6827dc	0.22671455
11	0xbee4046a	-0.44534618
12	0x3de067a0	0.10957265
13	0x3e4d94d0	0.20076299
14	0xbe81cae0	-0.25350094
15	0x3e4ce9d8	0.2001108
16	0x3e888168	0.2666123
17	0x3e9b1db6	0.30296105
18	0x3ed8f97e	0.42377847
19	0xbecd26c8	-0.4006865
20	0xbd9f23c4	-0.077704936
21	0xbd8e9ad4	-0.06963125
22	0x3ed8a158	0.42310596
23	0xbe4fbbdc	-0.20286506
24	0xbe0fc294	-0.1403907

blocks.4.att.value.weight f4 [5, 5]
0	0xbe89adb0	-0.26890326
1	0x3df17408	0.11789709
2	0x3e9d2ef2	0.3069988
3	0x3ecbdd98	0.398175
4	0x3e9d5512	0.30728966
5	0x3c97ca80	0.018529177
6	0xbe67d618	-0.22640264
7	0x3e18b2e4	0.14911991
8	0x3e109a24	0.141213
9	0xbe8e14da	-0.27750283
10	0x3e8e1df2	0.2775722
11	0x3bcaaf80	0.006185472
12	0x3eda954e	0.42692035
13	0x3b768080	0.0037613213
14	0x3c4a4b20	0.012347013
15	0xbeab756a	-0.33488017
16	0x3d7c79a0	0.06163943
17	0xbe0e4412	-0.13893154
18	0xbe880e9a	-0.2657364
19	0x3e0fba4c	0.1403591
20	0xbe6bfec8	-0.2304641
21	0x3ed4e4bc	0.4158076
22	0x3e2dc0a4	0.16968018
23	0x3d2877a8	0.041129738
24	0x3ea78088	0.3271525

blocks.4.att.receptance.weight f4 [5, 5]
0	0xbe69ad75	-0.22820075
1	0xbe5d43eb	-0.2160794
2	0x3d62c2e0	0.05536163
3	0xbe9e4dee	-0.3091883
4	0x3ea9ee64	0.3318969
5	0x3e4ea4f4	0.20180112
6	0x3d53d7e8	0.051719576
7	0x3ec42fee	0.38317817
8	0xbd9d1080	-0.07669163
9	0xbd5ae760	-0.053443313
10	0x3df72fd0	0.120696664
11	0xbec0c8a9	-0.37653092
12	0xbdc61c3c	-0.09673354
13	0xbe533dd6	-0.20629057
14	0x3e3bfd58	0.18358362
15	0xbeabf8af	-0.33588168
16	0x3c016de0	0.007899731
17	0xbc9da000	-0.019241333
18	0x3e21f9b0	0.15817904
19	0x3e6745d4	0.22585231
20	0xbdf83cc0	-0.12120962
21	0xbea2e902	-0.31818396
22	0xbee1afe1	-0.44079497
23	0xbeb4c667	-0.3530762
24	0xbead1c2a	-0.3381055

blocks.4.att.output.weight f4 [5, 5]
0	0x3d43e1e8	0.047822863
1	0x3cb92ba0	0.02260381
2	0xbdb2b064	-0.0872505
3	0x3ea52aa4	0.32259095
4	0x3ec3e91e	0.38263792
5	0xbeaa25a0	-0.3323183
6	0x3e4e8808	0.2016908
7	0xbe8ef596	-0.27921742
8	0xbd7074a8	-0.058705002
9	0x3eba30be	0.36365312
10	0x3e5c0bd8	0.21488893
11	0xbe0beb8c	-0.13664073
12	0xbdcd14b4	-0.100137144
13	0xbedb38d0	-0.42816782
14	0xbe7310fa	-0.23736945
15	0xbe844d68	-0.25840306
16	0xbba0a640	-0.004902631
17	0x3e951fe4	0.29125893
18	0x3d927610	0.07151425
19	0xbec2b5c2	-0.38029295
20	0xbe7b5cd3	-0.24547128
21	0x3c8eadf0	0.017416924
22	0xbdc44d90	-0.095851064
23	0x3ee20b0a	0.44149047
24	0xbe98683e	-0.2976703

blocks.4.ffn.time_mix_k f4 [1, 1, 5]
0	0x00000000	0.0
1	0x3ec2ef25	0.38073078
2	0x3f13bb83	0.57707995
3	0x3f3c6bef	0.73602194
4	0x3f5feba9	0.87468964

blocks.4.ffn.time_mix_r f4 [1, 1, 5]
0	0x00000000	0.0
1	0x3ec2ef25	0.38073078
2	0x3f13bb83	0.57707995
3	0x3f3c6bef	0.73602194
4	0x3f5feba9	0.87468964

blocks.4.ffn.key.weight f4 [20, 5]
0	0x3c8db4f0	0.017298192
1	0xbdb514c4	-0.08841851
2	0xbda1e504	-0.079050094
3	0xbecabe2d	-0.39598218
4	0x3da5d4c8	0.080972254
5	0x3e2116a8	0.15731299
6	0xbed5691d	-0.41681758
7	0x3addca00	0.0016921163
8	0xbe10747c	-0.14106935
9	0xbd85aa70	-0.06526649
10	0x3e870504	0.26371014
11	0x3d0e8300	0.0347929
12	0xbdb5bb34	-0.08873597
13	0xbd84a214	-0.064762264
14	0x3e61da28	0.22055876
15	0x3dff7f88	0.124754965
16	0x3ece0368	0.40236974
17	0xbdfc0c74	-0.12307063
18	0xbebb044e	-0.36526722
19	0x3ecf9c96	0.40549153
20	0xbe80904e	-0.25110096
21	0x3e9e55be	0.3092479
22	0xbec6065f	-0.38676736
23	0x3e9f8b54	0.31160986
24	0x3e3e6334	0.1859253
25	0xbe7a926b	-0.24469917
26	0xbec06d08	-0.37583184
27	0x3d50b850	0.050957024
28	0xbee2b464	-0.44278252
29	0x3e0b6e3c	0.1361627
30	0x3eb44164	0.3520614
31	0xbe331f88	-0.17492497
32	0x3d4e0d38	0.050305575
33	0xbe63ee47	-0.22258864
34	0xbed54348	-0.41652894
35	0x3cc780b0	0.024353355
36	0xbedeb949	-0.43500736
37	0x3dae7190	0.08517754
38	0xbea8c1f5	-0.32960477
39	0x3ea7e612	0.32792717
40	0xbe933fc8	-0.287596
41	0xbd008c90	-0.03138405
42	0x3d56f440	0.05247903
43	0x3e238d84	0.15971953
44	0xbe470028	-0.19433653
45	0xbed2e610	-0.4119115
46	0x3d66aaa0	0.056315064
47	0xbd9f38ac	-0.07774481
48	0xbe816c74	-0.25278056
49	0xbe9c05ee	-0.30473274
50	0xbe7643a1	-0.24049236
51	0x3ee39338	0.44448256
52	0xbd6df290	-0.058092654
53	0xbdafad2c	-0.08577952
54	0x3e6e4edc	0.2327227
55	0xbe9bb9ed	-0.30415288
56	0x3e272d48	0.16325867
57	0xbe03423c	-0.12818235
58	0x3e4084ec	0.18800706
59	0xbeacbcfe	-0.3373794
60	0xbeaf244d	-0.34207383
61	0x3eaea27a	0.34108335
62	0x3edc2624	0.4299785
63	0x3ea04b10	0.31307268
64	0xbeb63440	-0.3558674
65	0xbeb6f4c0	-0.35733604
66	0x3dfbce50	0.1229521
67	0xbc278f60	-0.010227054
68	0xbde68250	-0.11255324
69	0x3ed27604	0.41105664
70	0x3e9e7898	0.3095138
71	0xbea06b22	-0.31331736
72	0xbea68fe8	-0.32531667
73	0x3ca21140	0.019783616
74	0xbeb61a70	-0.35567045
75	0x3d87c3e0	0.06629157
76	0x3e573d98	0.2101959
77	0xbee055f8	-0.4381559
78	0xbec4182e	-0.38299698
79	0x3e4df1cc	0.2011177
80	0xbe90f26c	-0.28309953
81	0x3dacfbf8	0.08446497
82	0x3d9cdee8	0.076597035
83	0x3cffb3e0	0.0312137
84	0xbe39ae20	-0.1813283
85	0x3e6ebcc4	0.23314196
86	0xbcf290a0	-0.029609978
87	0x3ecc099e	0.39851087
88	0xbea4e8c2	-0.3220883
89	0x3eb4fd86	0.35349673
90	0xbdf07ea4	-0.11742905
91	0xbd87efa0	-0.06637502
92	0x3db2bc00	0.087272644
93	0xbdb0aa4c	-0.086262316
94	0x3e835bc4	0.2565595
95	0xbe6fe90f	-0.23428749
96	0xbdc8b498	-0.098000705
97	0x3e783f00	0.24242783
98	0x3ecb2bb6	0.39681786
99	0xbe21033a	-0.15723887

blocks.4.ffn.receptance.weight f4 [5, 5]
0	0x3e71dce4	0.2361942
1	0x3db7a6b0	0.0896734
2	0xbda97490	-0.08274186
3	0xbec4a9a4	-0.38410676
4	0xbeb0c141	-0.3452244
5	0x3e4e207c	0.2012958
6	0xbeb3c162	-0.35108477
7	0xbec30b00	-0.3809433
8	0xbea745b7	-0.32670376
9	0xbe746c8f	-0.23869537
10	0xbedd2f10	-0.43199968
11	0xbe945a8f	-0.2897534
12	0x3ee4aca0	0.44662952
13	0x3e581d20	0.2110486
14	0xbebbe094	-0.36694777
15	0x3ece11c8	0.4024794
16	0x3e76dba8	0.2410723
17	0x3e505b3c	0.20347303
18	0xbc38b740	-0.011274159
19	0xbea5e7a7	-0.324033
20	0xbe69df47	-0.2283908
21	0x3e9d7cee	0.30759376
22	0x3e796190	0.24353623
23	0x3ec93fe6	0.39306563
24	0x3e34c0ec	0.17651719
